Breast-Cancer-Classification-model.pt (torch, 1914 bytes, 1 tensors)

0.weight f4 [1, 30]
-0.29560384 -0.27513224 -0.3996688 -0.38511088 -0.15445228 -0.045353398 -0.3883618 -0.4100867
-0.26550925 0.388887 -0.33772135 -0.26180023 -0.47259903 -0.28357854 0.14148515 0.1805472
0.076873004 -0.1768198 0.18393214 0.72305053 -0.46701005 -0.30209526 -0.28337377 -0.29392487
-0.3423265 -0.25308803 -0.35457537 -0.3203664 -0.31614396 -0.38246012
00000000: 6359 97be 22de 8cbe 64a1 ccbe 412d c5be
00000010: bd28 1ebe 7cc4 39bd 5cd7 c6be e2f6 d1be
00000020: d4f0 87be 321c c73e d0e9 acbe ae0a 86be
00000030: 80f8 f1be 3531 91be 7ce1 103e 5de1 383e
00000040: 986f 9d3d 4010 35be b558 3c3e d719 393f
00000050: f11b efbe 3bac 9abe 5e16 91be 527d 96be
00000060: 6b45 afbe c194 81be e78a b5be 1107 a4be
00000070: 9fdd a1be d0d1 c3be
